…
Layer (type)                    Output Shape         Param #     Connected to                     
==================================================================================================
recHitFeatures (InputLayer)     [(None, 10)]         0                                            
__________________________________________________________________________________________________
recHitFeatures_rowsplits (Input [(None, 1)]          0                                            
__________________________________________________________________________________________________
scaled_gooey_batch_norm2 (Scale (None, 10)           41          recHitFeatures[0][0]             
__________________________________________________________________________________________________
cast_row_splits (CastRowSplits) (None,)              0           recHitFeatures_rowsplits[0][0]   
__________________________________________________________________________________________________
ragged_global_exchange (RaggedG (None, 40)           0           scaled_gooey_batch_norm2[0][0]   
                                                                 cast_row_splits[0][0]            
__________________________________________________________________________________________________
dense_6 (Dense)                 (None, 64)           2624        ragged_global_exchange[0][0]     
__________________________________________________________________________________________________
dense_7 (Dense)                 (None, 64)           4160        dense_6[0][0]                    
__________________________________________________________________________________________________
select_features_2 (SelectFeatur (None, 3)            0           recHitFeatures[0][0]             
__________________________________________________________________________________________________
dense_8 (Dense)                 (None, 64)           4160        dense_7[0][0]                    
__________________________________________________________________________________________________
scaled_gooey_batch_norm2_1 (Sca (None, 3)            13          select_features_2[0][0]          
__________________________________________________________________________________________________
scaled_gooey_batch_norm2_2 (Sca (None, 64)           257         dense_8[0][0]                    
__________________________________________________________________________________________________
concatenate (Concatenate)       (None, 67)           0           scaled_gooey_batch_norm2_1[0][0] 
                                                                 scaled_gooey_batch_norm2_2[0][0] 
__________________________________________________________________________________________________
ragged_grav_net (RaggedGravNet) ((None, 64), (None,  17299       concatenate[0][0]                
                                                                 cast_row_splits[0][0]            
__________________________________________________________________________________________________
stop_gradient (StopGradient)    (None, 6)            0           ragged_grav_net[0][1]            
__________________________________________________________________________________________________
concatenate_1 (Concatenate)     (None, 131)          0           concatenate[0][0]                
                                                                 ragged_grav_net[0][0]            
__________________________________________________________________________________________________
concatenate_2 (Concatenate)     (None, 137)          0           stop_gradient[0][0]              
                                                                 concatenate_1[0][0]              
__________________________________________________________________________________________________
average_distance_regularizer (A (None, 65)           0           ragged_grav_net[0][3]            
__________________________________________________________________________________________________
distance_weighted_message_passi (None, 585)          24864       concatenate_2[0][0]              
                                                                 ragged_grav_net[0][2]            
                                                                 average_distance_regularizer[0][0
__________________________________________________________________________________________________
scaled_gooey_batch_norm2_3 (Sca (None, 585)          2341        distance_weighted_message_passing
__________________________________________________________________________________________________
dense_past_mp_0 (Dense)         (None, 64)           37504       scaled_gooey_batch_norm2_3[0][0] 
__________________________________________________________________________________________________
dense_18 (Dense)                (None, 64)           4160        dense_past_mp_0[0][0]            
__________________________________________________________________________________________________
dense_19 (Dense)                (None, 64)           4160        dense_18[0][0]                   
__________________________________________________________________________________________________
scaled_gooey_batch_norm2_4 (Sca (None, 64)           257         dense_19[0][0]                   
__________________________________________________________________________________________________
ragged_global_exchange_1 (Ragge (None, 256)          0           scaled_gooey_batch_norm2_4[0][0] 
                                                                 cast_row_splits[0][0]            
__________________________________________________________________________________________________
dense_20 (Dense)                (None, 64)           16448       ragged_global_exchange_1[0][0]   
__________________________________________________________________________________________________
dense_21 (Dense)                (None, 64)           4160        dense_20[0][0]                   
__________________________________________________________________________________________________
dense_22 (Dense)                (None, 64)           4160        dense_21[0][0]                   
__________________________________________________________________________________________________
scaled_gooey_batch_norm2_5 (Sca (None, 64)           257         dense_22[0][0]                   
__________________________________________________________________________________________________
concatenate_3 (Concatenate)     (None, 67)           0           scaled_gooey_batch_norm2_1[0][0] 
                                                                 scaled_gooey_batch_norm2_5[0][0] 
__________________________________________________________________________________________________
ragged_grav_net_1 (RaggedGravNe ((None, 64), (None,  17299       concatenate_3[0][0]              
                                                                 cast_row_splits[0][0]            
__________________________________________________________________________________________________
stop_gradient_1 (StopGradient)  (None, 6)            0           ragged_grav_net_1[0][1]          
__________________________________________________________________________________________________
concatenate_4 (Concatenate)     (None, 131)          0           concatenate_3[0][0]              
                                                                 ragged_grav_net_1[0][0]          
__________________________________________________________________________________________________
concatenate_5 (Concatenate)     (None, 137)          0           stop_gradient_1[0][0]            
                                                                 concatenate_4[0][0]              
__________________________________________________________________________________________________
average_distance_regularizer_1  (None, 65)           0           ragged_grav_net_1[0][3]          
__________________________________________________________________________________________________
distance_weighted_message_passi (None, 585)          24864       concatenate_5[0][0]              
                                                                 ragged_grav_net_1[0][2]          
                                                                 average_distance_regularizer_1[0]
__________________________________________________________________________________________________
scaled_gooey_batch_norm2_6 (Sca (None, 585)          2341        distance_weighted_message_passing
__________________________________________________________________________________________________
dense_past_mp_1 (Dense)         (None, 64)           37504       scaled_gooey_batch_norm2_6[0][0] 
__________________________________________________________________________________________________
dense_32 (Dense)                (None, 64)           4160        dense_past_mp_1[0][0]            
__________________________________________________________________________________________________
dense_33 (Dense)                (None, 64)           4160        dense_32[0][0]                   
__________________________________________________________________________________________________
scaled_gooey_batch_norm2_7 (Sca (None, 64)           257         dense_33[0][0]                   
__________________________________________________________________________________________________
concatenate_6 (Concatenate)     (None, 131)          0           scaled_gooey_batch_norm2_1[0][0] 
                                                                 scaled_gooey_batch_norm2_4[0][0] 
                                                                 scaled_gooey_batch_norm2_7[0][0] 
__________________________________________________________________________________________________
dense_34 (Dense)                (None, 64)           8448        concatenate_6[0][0]              
__________________________________________________________________________________________________
dense_35 (Dense)                (None, 64)           4160        dense_34[0][0]                   
__________________________________________________________________________________________________
dense_36 (Dense)                (None, 64)           4160        dense_35[0][0]                   
__________________________________________________________________________________________________
scaled_gooey_batch_norm2_8 (Sca (None, 64)           257         dense_36[0][0]                   
__________________________________________________________________________________________________
dense_37 (Dense)                (None, 1024)         66560       scaled_gooey_batch_norm2_8[0][0] 
__________________________________________________________________________________________________
dense_38 (Dense)                (None, 512)          524800      dense_37[0][0]                   
__________________________________________________________________________________________________
dense_39 (Dense)                (None, 128)          65664       dense_38[0][0]                   
__________________________________________________________________________________________________
dense_40 (Dense)                (None, 64)           8256        dense_39[0][0]                   
__________________________________________________________________________________________________
dense_41 (Dense)                (None, 32)           2080        dense_40[0][0]                   
__________________________________________________________________________________________________
dense_42 (Dense)                (None, 16)           528         dense_41[0][0]                   
__________________________________________________________________________________________________
dense_43 (Dense)                (None, 1)            17          dense_42[0][0]                   
__________________________________________________________________________________________________
2 (InputLayer)                  [(None, 1)]          0                                            
__________________________________________________________________________________________________
reduce_loss (LLReduceLoss)      (None, 1)            3           dense_43[0][0]                   
                                                                 2[0][0]                          
__________________________________________________________________________________________________
1 (InputLayer)                  [(None, 1)]          0                                            
__________________________________________________________________________________________________
…
